…
    assert embedding.shape[1] == 384  # MiniLM-L6-v2 dimension
E   assert 512 == 384</failure></testcase><testcase classname="tests.test_integration.TestEmbeddings" name="test_text_embeddings_batch" time="0.015"><failure message="assert 512 == 384">tests\test_integration.py:104: in test_text_embeddings_batch
    assert embeddings.shape[1] == 384
E   assert 512 == 384</failure></testcase><testcase classname="tests.test_integration.TestEmbeddings" name="test_embedding_model_loading" time="0.001"><failure message="AssertionError: assert False&#10; +  where False = hasattr(CLIP(\n  (visual): VisionTransformer(\n    (conv1): Conv2d(3, 768, kernel_size=(32, 32), stride=(32, 32), bias=False)\n    (patch_dropout): Identity()\n    (ln_pre): LayerNorm((768,), eps=1e-05, elementwise_affine=True)\n    (transformer): Transformer(\n      (resblocks): ModuleList(\n        (0-11): 12 x ResidualAttentionBlock(\n          (ln_1): LayerNorm((768,), eps=1e-05, elementwise_affine=True)\n          (attn): MultiheadAttention(\n            (out_proj): NonDynamicallyQuantizableLinear(in_features=768, out_features=768, bias=True)\n          )\n          (ls_1): Identity()\n          (ln_2): LayerNorm((768,), eps=1e-05, elementwise_affine=True)\n          (mlp): Sequential(\n            (c_fc): Linear(in_features=768, out_features=3072, bias=True)\n            (gelu): QuickGELU()\n            (c_proj): Linear(in_features=3072, out_features=768, bias=True)\n          )\n          (ls_2): Identity()\n        )\n      )\n    )\n    (ln_post): LayerNorm((768,), eps=1e-05, elementwise_affine=True)\n  )\n  (transformer): Transformer(\n    (resblocks): ModuleList(\n      (0-11): 12 x ResidualAttentionBlock(\n        (ln_1): LayerNorm((512,), eps=1e-05, elementwise_affine=True)\n        (attn): MultiheadAttention(\n          (out_proj): NonDynamicallyQuantizableLinear(in_features=512, out_features=512, bias=True)\n        )\n        (ls_1): Identity()\n        (ln_2): LayerNorm((512,), eps=1e-05, elementwise_affine=True)\n        (mlp): Sequential(\n          (c_fc): Linear(in_features=512, out_features=2048, bias=True)\n          (gelu): QuickGELU()\n          (c_proj): Linear(in_features=2048, out_features=512, bias=True)\n        )\n        (ls_2): Identity()\n      )\n    )\n  )\n  (token_embedding): Embedding(49408, 512)\n  (ln_final): LayerNorm((512,), eps=1e-05, elementwise_affine=True)\n), 'encode')">tests\test_integration.py:112: in test_embedding_model_loading
    assert hasattr(model, 'encode')
E   AssertionError: assert False
E    +  where False = hasattr(CLIP(\n  (visual): VisionTransformer(\n    (conv1): Conv2d(3, 768, kernel_size=(32, 32), stride=(32, 32), bias=False)\n    (patch_dropout): Identity()\n    (ln_pre): LayerNorm((768,), eps=1e-05, elementwise_affine=True)\n    (transformer): Transformer(\n      (resblocks): ModuleList(\n        (0-11): 12 x ResidualAttentionBlock(\n          (ln_1): LayerNorm((768,), eps=1e-05, elementwise_affine=True)\n          (attn): MultiheadAttention(\n            (out_proj): NonDynamicallyQuantizableLinear(in_features=768, out_features=768, bias=True)\n          )\n          (ls_1): Identity()\n          (ln_2): LayerNorm((768,), eps=1e-05, elementwise_affine=True)\n          (mlp): Sequential(\n            (c_fc): Linear(in_features=768, out_features=3072, bias=True)\n            (gelu): QuickGELU()\n            (c_proj): Linear(in_features=3072, out_features=768, bias=True)\n          )\n          (ls_2): Identity()\n        )\n      )\n    )\n    (ln_post): LayerNorm((768,), eps=1e-05, elementwise_affine=True)\n  )\n  (transformer): Transformer(\n    (resblocks): ModuleList(\n      (0-11): 12 x ResidualAttentionBlock(\n        (ln_1): LayerNorm((512,), eps=1e-05, elementwise_affine=True)\n        (attn): MultiheadAttention(\n          (out_proj): NonDynamicallyQuantizableLinear(in_features=512, out_features=512, bias=True)\n        )\n        (ls_1): Identity()\n        (ln_2): LayerNorm((512,), eps=1e-05, elementwise_affine=True)\n        (mlp): Sequential(\n          (c_fc): Linear(in_features=512, out_features=2048, bias=True)\n          (gelu): QuickGELU()\n          (c_proj): Linear(in_features=2048, out_features=512, bias=True)\n        )\n        (ls_2): Identity()\n      )\n    )\n  )\n  (token_embedding): Embedding(49408, 512)\n  (ln_final): LayerNorm((512,), eps=1e-05, elementwise_affine=True)\n), 'encode')</failure></testcase><testcase classname="tests.test_integration.TestVectorStore" name="test_faiss_store_creation" time="0.004"><failure message="AttributeError: 'FAISSStore' object has no attribute 'index'">tests\test_integration.py:124: in test_faiss_store_creation
    assert store.index is not None
E   AttributeError: 'FAISSStore' object 
…
